models/model.pt (torch, 3392 bytes, 3 tensors)

layer1.weight f4 [128, 1]
0.8086578 0.7937547 -0.19431943 0.96318436 -1.3870445e-23 0.16555229 -1.210584e-05 0.5541996
0.9267901 -0.0031881852 0.871036 0.23820822 0.7193859 -5.7762044e-38 0.5270113 6.321083e-36
0.81473815 0.19165173 -0.43916202 0.23637854 -0.20507549 2.885583e-39 -2.22736e-07 0.62570405
-0.0062277126 -4.1533494e-06 -0.24482122 -0.00033591304 0.063709095 -0.032472458 0.86544555 -0.011361232
0.8151655 0.16641767 -1.4929183e-10 0.5864871 0.11885466 0.7702809 0.16428997 -0.28124797
0.23343085 -1.1678182e-14 0.3929841 0.8643349 0.63083756 -1.321862e-06 0.54849005 0.14602216
0.47095513 -0.00040104846 -0.032931853 -5.7313244e-08 -0.0048317495 0.8708791 0.33123735 0.45927706
0.27935585 0.02869119 0.82549334 -0.0023223162 0.11152276 -0.0015254922 0.30895743 -1.4360169e-09
0.27064925 -0.2218826 0.8727729 -0.00027741032 -0.00030153902 -0.00030178356 0.86321944 0.2958103
0.9252904 -0.009036276 -0.03334053 -0.005762574 -0.0013016954 0.36829698 0.4032635 0.7942279
-3.455356e-05 -0.0015056118 0.4977992 -0.092056125 0.6314416 5.0424297e-20 0.53831536 -0.66748166
-2.321286e-05 0.2709262 0.25457397 -9.1420756e-17 0.56014895 0.7267642 -0.0028476627 -5.9678456e-05
0.95898235 -0.3242262 -0.3362129 -0.028511267 -0.00017222916 0.30699077 -1.083863e-37 -0.6576965
-0.0059270156 -0.5361423 -0.011250435 -9.6734366e-05 -0.014250609 -0.0006912218 1.0467975 0.17920041
0.27094582 -0.022373917 -0.0009944354 -4.0190234e-10 0.12171952 -0.014827718 -9.479847e-07 -0.00031717977
-5.274891e-38 -0.31739032 1.180815e-39 -0.0014105238 -0.0016206366 -0.00022352564 -1.1521334e-09 -0.006221606
00000000: 3304 4f3f 8233 4b3f acfb 46be 4093 763f
00000010: 8f25 8699 8a86 293e 301a 4bb7 06e0 0d3f
00000020: 1e42 6d3f dff0 50bb 37fc 5e3f dbec 733e
00000030: ad29 383f 453e 9d81 36ea 063f 406f 0605
00000040: ae92 503f 5a40 443e d8d9 e0be 370d 723e
00000050: 4fff 51be d56b 1f00 3529 6fb4 242e 203f
00000060: d711 ccbb 005d 8bb6 6ab2 7abe 7c1d b0b9
00000070: ea79 823d d701 05bd d78d 5d3f 7624 3abc
00000080: b0ae 503f 6569 2a3e ea25 24af 0524 163f
00000090: 126a f33d 2131 453f a13b 283e bcff 8fbe
000000a0: 7f08 6f3e 1c60 52a8 3635 c93e 0d45 5d3f
000000b0: 927e 213f d56a b1b5 d869 0c3f d586 153e
000000c0: 0821 f13e d043 d2b9 8de3 06bd 9428 76b3
000000d0: a753 9ebb eff1 5e3f f197 a93e 5d26 eb3e
000000e0: bb07 8f3e c909 eb3c 8853 533f 0032 18bb
000000f0: 0b66 e43d 06f3 c7ba ab2f 9e3e 5a5d c5b0
00000100: 8a92 8a3e 3135 63be 0b6e 5f3f 6271 91b9
00000110: e217 9eb9 b438 9eb9 f3fb 5c3f 7374 973e
00000120: d5df 6c3f e30c 14bc 1490 08bd f9d3 bcbb
00000130: a69d aaba 6c91 bc3e 8e78 ce3e 8552 4b3f
00000140: 9aed 10b8 f357 c5ba 89df fe3e ec87 bcbd
00000150: 28a6 213f 3c1f 6e1f 09cf 093f 14e0 2abf
00000160: 3db9 c2b7 d7b6 8a3e 8557 823e 4acd d2a4
00000170: ec65 0f3f 380d 3a3f da9f 3abb 414f 7ab8
00000180: de7f 753f fa00 a6be 1924 acbe 7690 e9bc
00000190: 6a98 34b9 e52d 9d3e 1d87 1382 cc5e 28bf
000001a0: 6937 c2bb 9f40 09bf bf53 38bc dedd cab8
000001b0: 637b 69bc 1c33 35ba 76fd 853f 5080 373e
000001c0: 69b9 8a3e 8149 b7bc b757 82ba baf2 dcaf
000001d0: 1548 f93d f5ef 72bc 0379 7eb5 264b a6b9
000001e0: a098 8f81 fc80 a2be a2db 0c00 53e1 b8ba
000001f0: 8a6b d4ba 3562 6ab9 1759 9eb0 9dde cbbb

layer1.bias f4 [128]
0.874423 -0.23119843 0.8865122 0.34944335 -0.011086397 0.6558726 -3.069006e-14 -0.4125761
-0.78692806 -0.033818997 0.27405322 -0.17630582 0.36127904 -0.008633809 0.7786613 -0.0032060894
-0.13364258 0.24658078 0.43617436 0.77276856 1.0253966 -0.0064734314 2.5865253e-17 -0.46357346
3.282693e-39 -0.00385833 0.85995 -0.0032017506 0.50013137 2.9364675e-09 0.2896609 -7.287126e-05
0.9449153 0.2049853 -8.112499e-38 -0.90520245 0.38432577 -0.18411249 -0.4049651 0.8188108
0.18884188 -0.00010392319 -0.5295203 -0.075356506 0.5950354 -1.1242382e-16 -0.5938743 -0.37213993
-0.7791078 4.833967e-09 0.0052429237 -0.023825385 -6.985444e-21 0.5540466 0.21889256 -0.31576672
0.48621592 0.5627035 0.41106948 7.963477e-31 -0.22202215 1.079113e-39 -0.18199983 -2.962556e-12
0.6032892 0.8186105 -0.060493708 -2.4882695e-22 4.0219e-39 -5.904075e-39 0.20604807 0.24500802
-0.9393469 -1.4594788e-08 0.010617111 7.233141e-08 6.694356e-39 -0.6353359 -0.56971043 -0.92665344
-1.7486876e-10 6.9841716e-10 0.60220885 0.097277276 -0.8497635 -0.00033657762 -0.18894696 0.8371419
2.046602e-35 -0.29011774 0.45077828 -3.7934182e-08 -0.6783402 0.76591295 -3.1178076e-06 8.4315426e-27
-0.95395136 0.63957053 0.73925877 9.827514e-09 -0.0019136325 -0.89480543 -0.007926424 0.65165263
0.4466251 0.66065145 4.388991e-05 4.5488038e-17 -1.128161e-38 -0.0044712555 -0.8102056 -0.9129819
0.37387285 -1.415209e-05 2.4958122e-27 -0.00018473632 -0.21444641 -0.0021087218 -0.00093749654 3.513916e-10
-2.5806143e-12 0.5034908 -9.028161e-11 -0.0031856298 3.5883648e-31 -1.1159083e-05 -1.0784186e-11 -0.025652943
00000000: 30da 5f3f 48bf 6cbe 77f2 623f 3dea b23e
00000010: b8a3 35bc 44e7 273f 3b37 0aa9 2d3d d3be
00000020: 1e74 49bf ca85 0abd b450 8c3e 8389 34be
00000030: 91f9 b83e d274 0dbc 5956 473f 411d 52bb
00000040: 9ad9 08be ac7f 7c3e 3f52 df3e 29d4 453f
00000050: 3240 833f 141f d4bb 9a90 ee23 8059 edbe
00000060: d0be 2300 09dc 7cbb af25 5c3f 76d4 51bb
00000070: 9c08 003f e2ca 4931 6f4e 943e 76d2 98b8
00000080: f8e5 713f abe7 513e ded7 dc81 59bb 67bf
00000090: 59c6 c43e fc87 3cbe 9657 cfbe 969d 513f
000000a0: c45f 413e 56f1 d9b8 a48e 07bf 8354 9abd
000000b0: 3d54 183f a89d 01a5 2508 18bf 2089 bebe
000000c0: 9c73 47bf 0618 a631 d5cc ab3b 742d c3bc
000000d0: 89f3 039e ffd5 0d3f 5f25 603e 2dac a1be
000000e0: 4bf1 f83e 560d 103f b377 d23e fd36 810d
000000f0: c659 63be 21c0 0b00 2a5e 3abe aa78 50ac
00000100: 2971 1a3f 7590 513f 40c8 77bd 1b68 969b
00000110: 6ccb 2b00 294a 4080 44fe 523e 62e3 7a3e
00000120: 0a79 70bf 8ebc 7ab2 64f3 2d3c 9d54 9b33
00000130: 24e5 4800 60a5 22bf 8bd8 11bf 2939 6dbf
00000140: 2e45 40af bdfa 3f30 5c2a 1a3f 4f39 c73d
00000150: 1a8a 59bf af76 b0b9 507b 41be ee4e 563f
00000160: cea1 d905 508a 94be 69cc e63e 13ed 22b3
00000170: b4a7 2dbf df12 443f 873b 51b6 0001 2714
00000180: 2836 74bf e5ba 233f 1040 3d3f ddd5 2832
00000190: dad2 faba f811 65bf d5dd 01bc b5d2 263f
000001a0: 0cac e43e 7420 293f 6f16 3838 ccc6 5124
000001b0: 8ad8 7a80 9c83 92bb a269 4fbf 2fb9 69bf
000001c0: 436c bf3e c46e 6db7 16bd 4513 c7b5 41b9
000001d0: d797 5bbe 7b32 0abb 54c2 75ba f92d c12f
000001e0: 3798 35ac c6e4 003f 0788 c6ae 00c6 50bb
000001f0: f0e5 e80c e637 3bb7 a8b7 3dad 1f26 d2bc

layer2.weight f4 [1, 128]
0.089506 -0.020977153 0.0509255 0.08072068 -3.304601e-39 -0.029886208 -6.485625e-39 -0.00085172633
0.075135425 3.991935e-39 0.027737517 0.043744992 0.019546147 4.092737e-39 0.082358174 -4.471859e-39
0.096147686 0.10710144 0.057202443 0.017436037 -0.20726132 -6.36708e-39 6.311614e-39 -0.047010314
-6.880176e-39 -3.26165e-39 -0.021166977 -5.930334e-39 0.00076727744 2.589082e-39 -0.043985117 -1.85715e-40
0.11408923 0.025037603 -1.842038e-39 0.006143479 -0.042036254 -0.045528952 0.10219791 -0.05942373
-0.017785752 -1.5191463e-38 0.01212916 0.011824661 0.04313865 2.459168e-39 0.01102165 -0.0016997764
-0.029826887 -3.058496e-39 -3.155145e-39 1.982595e-39 2.475115e-39 0.04760017 0.123323604 0.083331935
-0.037833206 0.07377978 0.124425486 -2.060186e-39 0.12657501 -5.23556e-40 0.027301624 -4.067276e-39
-0.022848561 -0.009845724 0.10657842 4.255624e-39 5.03013e-39 -2.508683e-39 -0.020309584 -0.048035335
-0.026627563 5.538761e-39 4.296758e-39 8.275688e-39 1.652247e-39 -0.02898883 0.088705815 -0.02402467
-2.37457e-39 -4.279641e-39 -0.0016266428 0.005171167 0.03536664 -5.256231e-39 -0.0043623135 -0.07817109
-5.612017e-39 -0.006676391 0.12556742 5.632186e-39 -0.017796088 0.061547533 -1.748411e-39 6.663317e-39
0.10977532 0.036267992 -0.09114986 4.93083e-39 -4.155057e-39 0.058595974 2.6094e-40 0.05638781
0.0018995742 -0.04965761 -3.846412e-39 -3.248956e-38 5.560469e-39 6.406416e-39 0.059626594 -0.042118084
-0.043660533 6.242582e-38 -1.260646e-39 -1.582269e-39 -0.01179509 1.4507217e-38 -5.011354e-39 3.602695e-39
8.507981e-39 0.037816543 -5.54331e-39 6.91176e-39 -4.08034e-40 -6.995666e-39 1.670977e-39 3.953174e-39
00000000: ec4e b73d 47d8 abbc 4297 503d e250 a53d
00000010: e2fb 2380 ecd3 f4bc 499f 4680 6346 5fba
00000020: 9ae0 993d e477 2b00 ca39 e33c f32d 333d
00000030: 3e1f a03c e390 2c00 67ab a83d b9b1 3080
00000040: 14e9 c43d 0058 db3d 1c4d 6a3d 05d6 8e3c
00000050: 503c 54be d454 4580 36ba 4400 e38d 40bd
00000060: 22eb 4a80 2784 2380 5e66 adbc 5c93 4080
00000070: 1e23 493a 4f31 1c00 bd29 34bd b305 0280
00000080: 9da7 e93d a91b cd3c da0e 1480 3d4f c93b
00000090: 352e 2cbd 917c 3abd 234d d13d 4c66 73bd
000000a0: 6db3 91bc 9e6b a580 62b9 463c 39bc 413c
000000b0: 27b2 303d 29c7 1a00 2794 343c 08cb deba
000000c0: 8457 f4bc d84d 2180 435b 2280 ab96 1500
000000d0: 9df3 1a00 65f8 423d 1691 fc3d efa9 aa3d
000000e0: fef6 1abd da19 973d cad2 fe3d f66e 1680
000000f0: e19c 013e 76b3 0580 a8a7 df3c e949 2c80
00000100: e82c bbbc f64f 21bc c945 da3d f356 2e00
00000110: f5c5 3600 3051 1b80 4960 a6bc b3c0 44bd
00000120: 0c22 dabc d04f 3c00 9dc9 2e00 401d 5a00
00000130: cbfd 1100 fc79 edbc 65ab b53d 62cf c4bc
00000140: 56db 1980 e699 2e80 1335 d5ba e572 a93b
00000150: 9cdc 103d 3c3c 3980 bdf1 8ebb 2a18 a0bd
00000160: 051c 3d80 a1c5 dabb bf94 003e 3e54 3d00
00000170: 1ac9 91bc 4419 7c3d dc09 1380 9e8e 4800
00000180: e2d1 e03d bf8d 143d c7ac babd 26b1 3500
00000190: 9c3e 2d80 5502 703d 65d7 0200 e7f6 663d
000001a0: 22fb f83a c765 4bbd 3be2 2980 d6e3 3081
000001b0: 538c 3c00 7bc2 4500 043b 743d 0384 2cbd
000001c0: 63d5 32bd 72f0 a901 2bba 0d80 b93a 1180
000001d0: 3140 41bc 38f8 9d00 9e91 3680 d93a 2700
000001e0: caa4 5c00 85e5 1a3d 7e5c 3c80 2d43 4b00
000001f0: 6f71 0480 122d 4c80 0132 1200 d70b 2b00
